Week_1/MNIST/models/lenet_model.pt (torch, 250544 bytes, 10 tensors)

conv1.weight f4 [6, 1, 5, 5]
0.18793917 0.08902594 0.2301439 0.13947657 0.10555073 0.11315472 0.20685908 0.20089982
-0.097035445 -0.06683868 0.17417136 -0.12535858 -0.13079739 0.12811078 0.18946119 -0.02855746
-0.098751225 0.1769841 0.16382524 0.05700268 -0.17325169 -0.22466874 0.05387338 0.12784372
0.0014326215 -0.1169127 -0.21612926 -0.0026166795 -6.226291e-05 -0.22363776 -0.39927107 0.12093926
-0.15756547 0.057420075 0.02598088 -0.32347924 -0.23316133 -0.17917345 -0.21872312 -0.20944847
-0.028585568 -0.070546605 -0.14672868 -0.02876297 -0.36298436 0.024574736 -0.09473984 -0.033179477
-0.11774329 0.056915615 0.07789598 0.1954934 -0.18761288 -0.27079603 -0.4155894 0.004270637
0.2728977 0.2508091 0.10851251 -0.20118612 -0.02472807 0.21844105 0.01801891 0.027106525
-0.23428468 -0.092406124 0.09265098 0.16988155 0.20038101 0.08850256 0.11253646 -0.172317
0.10428873 -0.11863969 0.033893127 0.1520066 0.25289878 0.11928632 0.209236 -0.19436249
0.20910928 0.14501283 0.17104137 0.082841866 -0.27374458 0.055065226 -0.004166947 -0.15201679
-0.27251187 -0.24558453 0.19776143 -0.10042573 0.02810335 -0.34162512 -0.13132986 0.24442886
-0.0048581352 -0.2931355 -0.05485507 -0.0084418915 -0.12578323 0.2284194 0.006570218 -0.04809647
0.110915385 0.29863802 0.11370232 0.31457844 0.24830656 0.2309138 0.18614128 0.17197193
0.122394636 0.06166126 0.028852131 -0.026739482 -0.28692374 -0.06905638 -0.26255238 0.114661165
-0.38624206 -0.3538772 -0.39497435 -0.06134958 -0.14865369 -0.16945304 -0.081897795 -0.12490995
0.07229298 0.20766385 -0.1616503 -0.18077353 -0.12696701 0.18918271 0.00070715713 -0.1281909
0.009930108 0.17160167 0.13214543 0.12075977 -0.14554416 0.050994966 0.22431144 -0.02271583
0.1865375 -0.027330559 0.1548208 0.23280698 0.12113414 0.14705634
00000000: 2073 403e 3b53 b63d d8aa 6b3e f2d2 0e3e
00000010: fb2a d83d a9bd e73d ded2 533e afb8 4d3e
00000020: 85ba c6bd b8e2 88bd fa59 323e 005e 00be
00000030: c0ef 05be 792f 033e 1d02 423e 56f1 e9bc
00000040: 153e cabd 523b 353e cec1 273e a47b 693d
00000050: e468 31be 900f 66be 55aa 5c3d 77e9 023e
00000060: cdc6 bb3a ed6f efbd fd50 5dbe 997c 2bbb
00000070: 2593 82b8 4c01 65be 426d ccbe 01af f73d
00000080: d858 21be 5031 6b3d dbd5 d43c 129f a5be
00000090: d8c1 6ebe 3f79 37be f4f8 5fbe a979 56be
000000a0: 482c eabc bd7a 90bd 0b40 16be 52a0 ebbc
000000b0: 16d9 b9be f550 c93c f606 c2bd 34e7 07bd
000000c0: 6523 f1bd 5920 693d ed87 9f3d 6c2f 483e
000000d0: 971d 40be c7a5 8abe 22c8 d4be b3f0 8b3b
000000e0: 3fb9 8b3e 0d6a 803e cf3b de3d bc03 4ebe
000000f0: 8592 cabc 03af 5f3e 659c 933c 810e de3c
00000100: 53e8 6fbe 6c3f bdbd ccbf bd3d 6ef5 2d3e
00000110: ae30 4d3e d540 b53d 8479 e63d de73 30be
00000120: 5495 d53d 5ef9 f2bd 85d3 0a3d 9ea7 1b3e
00000130: f37b 813e 634c f43d f641 563e f606 47be
00000140: be20 563e 3e7e 143e 7825 2f3e ffa8 a93d
00000150: 4028 8cbe 138c 613d e38a 88bb 4aaa 1bbe
00000160: ad86 8bbe 837a 7bbe f981 4a3e 01ac cdbd
00000170: ff38 e63c 7de9 aebe 567b 06be 8f4b 7a3e
00000180: fe30 9fbb db15 96be b6af 60bd dc4f 0abc
00000190: 52cd 00be c6e6 693e fc4a d73b ce00 45bd
000001a0: 9b27 e33d 15e7 983e c3dc e83d 6d10 a13e
000001b0: 1344 7e3e ab74 6c3e d29b 3e3e 6919 303e
000001c0: 0aaa fa3d 8490 7c3d 4e5b ec3c c20c dbbc
000001d0: abe7 92be 6e6d 8dbd 446d 86be 79d3 ea3d
000001e0: 85c1 c5be 642f b5be 143a cabe b249 7bbd
000001f0: ac38 18be 1985 2dbe 08ba a7bd cad0 ffbd
00000200: 580e 943d d5a5 543e a887 25be b21c 39be
00000210: a403 02be 1db9 413e 8360 393a 7a44 03be
00000220: e4b1 223c 59b8 2f3e 2251 073e e650 f73d
00000230: 8709 15be 19e0 503d e6b1 653e 8c16 babc
00000240: b003 3f3e 56e4 dfbc 5889 1e3e f464 6e3e
00000250: 2d15 f83d f095 163e

conv1.bias f4 [6]
-0.10088499 0.21621074 0.06861215 0.13029766 0.06977406 -0.15712632
00000000: ca9c cebd 5966 5d3e 8784 8c3d c06c 053e
00000010: b4e5 8e3d b9e5 20be

conv2.weight f4 [16, 6, 5, 5]
-0.06502158 0.023842158 0.03125655 0.024535926 0.071778536 -0.12373468 -0.048657767 -0.03908726
0.012885968 -0.058021635 -0.07250985 -0.037279047 0.025980169 0.0143599715 0.0004941831 -0.024277363
-0.1016607 0.06088099 0.014805714 -0.037565768 -0.07699666 -0.040143084 -0.07613285 0.018173803
-0.07454017 0.048799604 0.07905306 0.074197225 -0.0682666 -0.09999282 0.08329741 0.056979544
0.120453656 -0.15291382 -0.20435257 -0.0027798007 0.036637694 0.005217305 -0.17652227 -0.16128154
-0.029448304 0.086414106 -0.047346 -0.15906574 0.038337853 0.08334902 -0.04113608 -0.034878485
-0.07219937 -0.0022774732 0.08068724 -0.032865375 -0.095514975 -0.014845954 0.106278725 0.053943865
-0.20950069 -0.1449399 -0.07140404 0.037491057 0.0990227 -0.13277636 -0.16019072 -0.03257178
0.10161066 -0.06047249 -0.18536966 0.005807012 -0.013230394 0.026240755 -0.02640705 0.056283534
0.034129906 0.083728105 0.0451609 -0.005037943 0.13252328 0.0129886735 -0.051301483 0.07877042
0.060986858 0.008257087 0.00439745 0.060519055 0.03626284 0.12477627 0.08849767 0.074835904
0.113212004 0.1252048 0.014169831 0.057984747 0.19984655 0.1041627 0.07740563 0.11361044
0.03520163 0.17388561 0.10357281 -0.031821884 0.1469774 0.16313565 0.08080818 -0.06052078
-0.13418728 -0.02935586 0.0626793 -0.030161625 -0.09072149 -0.097984836 0.07096393 0.055088703
-0.18308724 -0.1503504 -0.037508942 0.009654833 -0.03858029 -0.008846722 -0.19908264 -0.091882676
0.13152947 0.071872786 -0.037365753 -0.09927943 0.045004282 -0.023029502 -0.11605869 0.029621445
0.007535918 0.13812879 -0.022920137 -0.15229093 -0.015759133 0.13280529 0.034335922 -0.1639046
0.003912798 0.08237705 0.101698466 -0.027223192 0.02357423 0.0869362 0.04393523 0.018681882
-0.050550036 -0.02321794 0.005875409 0.070502214 -0.056911964 -0.15906131 0.012298528 -0.041381855
0.053204983 -0.042389054 -0.07237109 -0.049168333 -0.07052788 0.055191476 0.033162385 -0.09774589
0.022433765 -0.043823738 0.07051544 0.07019235 0.039159138 0.087151706 -0.025886595 -0.024307866
0.05932224 -0.039395373 -0.009236881 0.034056548 0.06001273 0.015395076 0.022284986 -0.046594497
-0.06857341 -0.020434678 -0.039942276 0.015675245 -0.04059429 -0.07255318 -0.08460735 0.049171843
0.021432715 -0.012034496 0.04447625 0.036230497 -0.03344213 0.011789075 0.03276924 0.044686433
-0.07063807 -0.030319218 0.0050706966 0.08079438 0.05690103 0.034127276 0.0008293705 -0.09306899
-0.147741 -0.054207273 -0.03518874 -0.060596973 -0.04172204 -0.11766435 -0.058968756 -0.07612228
-0.09108223 -0.0021574365 -0.00020513125 0.03004838 0.08525366 -0.027124377 -0.037368428 0.057830002
0.17020677 0.13078208 0.099329874 -0.00032486083 0.09160637 0.06574151 0.019511508 0.012503248
-0.05480725 0.19727705 0.18587215 0.066186525 0.00153817 0.055104423 0.17310463 0.045477238
0.064004935 -0.012621776 0.12681678 -0.09420262 -0.060377736 -0.086719625 0.008995366 0.052911263
-0.17160723 -0.14262909 -0.16243745 -0.048145276 -0.117350444 -0.0965668 -0.063339666 0.014639783
-0.11587734 -0.08876405 0.074157804 0.0014145275 -0.06623663 -0.06163229 0.106355846 -0.06363092
00000000: 092a 85bd a150 c33c de06 003d 91ff c83c
00000010: a000 933d 9c68 fdbd 5e4d 47bd f619 20bd
00000020: ab1f 533c 18a8 6dbd 0b80 94bd eab1 18bd
00000030: 5dd4 d43c 1646 6b3c 118c 013a 52e1 c6bc
00000040: 7c33 d0bd 585e 793d aa93 723c 90de 19bd
00000050: 6db0 9dbd 136d 24bd 8aeb 9bbd 3ae1 943c
00000060: 84a8 98bd 18e2 473d 92e6 a13d b7f4 973d
00000070: 5ccf 8bbd 09c9 ccbd d597 aa3d 6263 693d
00000080: 68b0 f63d 7195 1cbe cd41 51be 512d 36bb
00000090: 6811 163d edf5 aa3b 41c2 34be fd26 25be
000000a0: 923d f1bc e1f9 b03d e1ed 41bd 21e2 22be
000000b0: 2708 1d3d e4b2 aa3d 4e7e 28bd bedc 0ebd
000000c0: 43dd 93bd a941 15bb 5a3f a53d d89d 06bd
000000d0: 5b9d c3bd 723c 73bc a9a8 d93d 3ef4 5c3d
000000e0: 5987 56be 206b 14be 483c 92bd 3990 193d
000000f0: 6acc ca3d 87f6 07be 0909 24be fd69 05bd
00000100: 4019 d03d 00b2 77bd 8bd1 3dbe bf48 be3b
00000110: 4bc4 58bc daf6 d63c 9953 d8bc 9089 663d
00000120: cdcb 0b3d a479 ab3d a3fa 383d 5415 a5bb
00000130: 2fb4 073e 72ce 543c 8121 52bd 6352 a13d
00000140: 5bcd 793d bc48 073c 7c18 903b d4e2 773d
00000150: 5888 143d b38a ff3d 443e b53d 9143 993d
00000160: b2db e73d b035 003e 9428 683c 6a81 6d3d
00000170: 93a4 4c3e 4153 d53d d886 9e3d 97ac e83d
00000180: 962f 103d 120f 323e fb1d d43d aa57 02bd
00000190: 3e81 163e 080d 273e c27e a53d a3e4 77bd
000001a0: 6468 09be b37b f0bc 015e 803d 8315 f7bc
000001b0: 30cc b9bd 46ac c8bd 8955 913d b1a4 613d
000001c0: 397b 3bbe 75f5 19be faa2 19bd 4e2f 1e3c
000001d0: 5e06 1ebd d7f1 10bc 52dc 4bbe fc2c bcbd
000001e0: a9af 063e 0a32 933d d50c 19bd 0453 cbbd
000001f0: 6956 383d 5ea8 bcbc 2eb0 edbd aca8 f23c
00000200: ddef f63b a271 0d3e 03c3 bbbc 27f2 1bbe
00000210: 4c19 81bc 1cfe 073e d3a3 0c3d 9cd6 27be
00000220: ee36 803b 4cb5 a83d 4947 d03d 2c03 dfbc
00000230: be1e c13c 9b0b b23d 6df5 333d bf0a 993c
00000240: 8e0d 4fbd 8d33 bebc 8186 c03b 7763 903d
00000250: 851c 69bd f8e0 22be c47f 493c 0580 29bd
00000260: 78ed 593d 25a0 2dbd 4b37 94bd bc64 49bd
00000270: ec70 90bd 7510 623d 48d5 073d ff2e c8bd
00000280: 04c7 b73c 8580 33bd 666a 903d 02c1 8f3d
00000290: 5565 203d 987c b23d 2010 d4bc 4a21 c7bc
000002a0: e1fb 723d 0b5d 21bd 4956 17bc e17e 0b3d
000002b0: e9cf 753d a13b 7c3c 018f b63c dfd9 3ebd
000002c0: 3770 8cbd a066 a7bc 839a 23bd 5f69 803c
000002d0: 3346 26bd c396 94bd 9e46 adbd 6a68 493d
000002e0: a993 af3c 562c 45bc ba2c 363d 6e66 143d
000002f0: 9dfa 08bd f726 413c 0a39 063d 1f09 373d
00000300: b1aa 90bd 0260 f8bc 1628 a63b 8677 a53d
00000310: 0e11 693d 0bc9 0b3d 1d6a 593a f49a bebd
00000320: 6b49 17be 7208 5ebd 1122 10bd 8834 78bd
00000330: bbe4 2abd 02fa f0bd 3989 71bd ffe5 9bbd
00000340: 5289 babd c763 0dbb 8018 57b9 0528 f63c
00000350: 7999 ae3d f133 debc a30f 19bd 27df 6c3d
00000360: af4a 2e3e bdeb 053e 766d cb3d 1552 aab9
00000370: 1f9c bb3d 7ca3 863d 99d6 9f3c 6cda 4c3c
00000380: 917d 60bd ff02 4a3e 4555 3e3e cd8c 873d
00000390: 6c9c c93a 2db5 613d 5742 313e 5746 3a3d
000003a0: 0515 833d 91cb 4ebc 42dc 013e 4eed c0bd
000003b0: a54e 77bd 0f9a b1bd 4d61 133c 7bb9 583d
000003c0: ceb9 2fbe 5c0d 12be 0156 26be fb33 45bd
000003d0: 6e55 f0bd d0c4 c5bd 3ab8 81bd b3db 6f3c
000003e0: 1951 edbd edc9 b5bd 0ce0 973d ab67 b93a
000003f0: 12a7 87bd 2472 7cbd 18d1 d93d ee50 82bd

conv2.bias f4 [16]
-0.005915625 0.009765685 0.01651654 -0.041830625 -0.07479187 0.0339997 0.08244068 -0.008145537
0.032603953 0.070070095 0.0029157186 0.05094823 0.02108598 -0.003079763 -0.0061698076 -0.03260438
00000000: dcd7 c1bb 4000 203c b24d 873c 9756 2bbd
00000010: 7b2c 99bd 4543 0b3d a9d6 a83d dc74 05bc
00000020: b98b 053d e980 8f3d a415 3f3b 17af 503d
00000030: 81bc ac3c d9d5 49bb 192c cabb 2c8c 05bd

fc_1.weight f4 [120, 400]
-0.0879472 -0.002727207 -0.060664997 -0.032891884 -0.18789831 -0.09748205 -0.053534336 -0.02763445
0.15204872 -0.048957966 0.010844946 -0.09757049 0.018028593 0.08717441 0.0106496615 0.013705235
-0.060493518 0.08303926 -0.033575777 -0.06908111 -0.022779493 0.051640693 0.045876622 -0.059940923
0.045566544 -0.015809093 -0.053220727 0.059532493 -0.016363202 0.033509046 -0.05940077 -0.0017715164
-0.015168968 -0.018379552 -0.11268893 0.06656431 0.029377708 0.013445021 -0.0136065455 -0.041438915
0.03650595 0.0072637275 -0.03151792 0.032841388 0.06101667 -0.044334665 -0.08076273 -0.006493731
0.11786878 0.02814196 -0.027296668 -0.014842853 -0.014969849 0.045773588 0.083677776 -0.0850374
-0.064865775 -0.0039040414 0.038765594 -0.077809915 0.006140677 0.076499574 0.064019784 -0.0141182
-0.16933736 -0.04511807 0.060761526 -0.020477094 -0.057365358 0.0018592562 -0.007713213 -0.0024528487
0.076073036 -0.014491339 0.12266519 0.002854379 -0.009742474 0.0002944875 0.01428716 -0.22291988
-0.061791707 0.057680324 0.055440325 0.045448195 -0.08583767 0.0068742214 0.040608745 -0.042654555
0.041425936 0.10867343 0.008918695 -0.0015832583 -0.04218051 -0.056015585 0.048082493 -0.022330232
-0.017348705 -0.027234256 0.012091314 0.06873269 0.05123673 -0.04886554 -0.059880726 -0.1009968
0.08905691 0.05352105 0.044034604 -0.031489067 0.0033426895 0.0774704 -0.04303521 -0.025392588
0.005027825 -0.020821888 -0.15043983 0.05189584 -0.0144602945 0.06472064 -0.046687163 0.09877087
0.05860686 -0.019953234 0.05332873 0.015629223 0.097758345 0.012822796 -0.02046532 -0.046901874
0.0212983 0.06316727 -0.060423378 -0.039856207 0.025759269 -0.015274522 0.1145362 -0.018134922
-0.015411308 -0.04912411 0.016411839 0.07127293 0.07636071 -0.005474569 0.02949516 0.0083888285
0.038159292 -0.03612387 0.09344393 0.12733516 0.10768486 -0.09073898 0.10606897 0.05485927
-0.04257428 0.013064195 -0.0483643 -0.05090651 -0.00091967476 0.059663974 -0.022998646 -0.04972382
-0.043737974 0.066732876 0.048134185 -0.027935894 0.031836633 0.016535327 0.031127848 0.008823058
0.007357231 -0.017521866 -0.04354353 -0.011298165 0.037423495 0.00454658 -0.008226448 0.05444736
0.015500979 -0.0012243234 -0.053410567 -0.06322361 -0.048439037 -0.031528857 -0.06130425 -0.07077932
-0.03125757 -0.05122769 0.004374973 0.018384209 0.0153674055 0.066458024 0.020031057 -0.02398285
-0.022367548 0.0016492474 0.029032536 0.10522591 -0.019383838 -0.092150964 0.06314385 0.0415868
-0.14660138 -0.09794103 0.031987816 0.17400607 0.054773103 -0.033964857 -0.0700401 0.08701478
0.054100905 0.02228809 -0.039774064 -0.10187066 0.04872426 0.017378068 -0.04283178 -0.027222885
-0.05352745 -0.040986102 0.019730173 0.027942758 0.0073193787 0.017899904 0.015835399 -0.0030126157
0.0660104 0.023867808 -0.048734672 0.007596229 0.046854936 -0.029785916 -0.058185708 -0.15718047
-0.0095728375 0.09237053 -0.0568154 0.025909554 0.0075250096 -0.08703139 -0.045106463 -0.0524601
-0.0002029742 0.018664682 0.067401074 0.0734666 -0.04974324 -0.0026166353 0.07365139 -0.06345995
-0.0439459 0.022235136 -0.0121977925 -0.24588867 0.05573348 0.06610119 0.0660778 -0.061596677
00000000: a91d b4bd f1ba 32bb dc7b 78bd a4b9 06bd
00000010: 6a68 40be aba4 c7bd d246 5bbd a461 e2bc
00000020: a9b2 1b3e 2688 48bd 00af 313c 09d3 c7bd
00000030: b3b0 933c 7f88 b23d eb7b 2e3c ec8b 603c
00000040: 0dc8 77bd 7d10 aa3d c186 09bd 667a 8dbd
00000050: 0f9c babc 3185 533d 20e9 3b3d 9d84 75bd
00000060: fca3 3a3d 1282 81bc fafd 59bd 58d8 733d
00000070: 1f0c 86bc c840 093d 394e 73bd 3a32 e8ba
00000080: 4387 78bc b790 96bc 74c9 e6bd de52 883d
00000090: 85a9 f03c 8148 5c3c fded 5ebc dabb 29bd
000000a0: 4387 153d 9004 ee3b ef18 01bd b184 063d
000000b0: 9eec 793d 4498 35bd ee66 a5bd 5dc9 d4bb
000000c0: 3065 f13d f889 e63c 439d dfbc 702f 73bc
000000d0: 1944 75bc 167d 3b3d 415f ab3d 1728 aebd
000000e0: 59d8 84bd f2da 7fbb acc8 1e3d ce5a 9fbd
000000f0: bb37 c93b cfab 9c3d ce1c 833d 0650 67bc
00000100: c666 2dbe bacd 38bd 14e1 783d 94bf a7bc
00000110: f0f7 6abd 49b2 f33a 1fbf fcbb f9bf 20bb
00000120: 2ecc 9b3d 156d 6dbc e337 fb3d 8810 3b3b
00000130: e69e 1fbc 7165 9a39 b114 6a3c 1c45 64be
00000140: 4d19 7dbd 3442 6c3d 6515 633d e327 3a3d
00000150: a9cb afbd 2641 e13b 5b55 263d 8bb6 2ebd
00000160: 3eae 293d 2d90 de3d b81f 123c 5585 cfba
00000170: 78c5 2cbd 9970 65bd 26f2 443d e4ed b6bc
00000180: df1e 8ebc 601a dfbc a61a 463c b9c3 8c3d
00000190: 9bdd 513d 3c27 48bd 7e45 75bd 69d7 cebd
000001a0: 7863 b63d e338 5b3d a15d 343d aefa 00bd
000001b0: 0611 5b3b cda8 9e3d b045 30bd 1e04 d0bc
000001c0: 74c0 a43b aa92 aabc e60c 1abe bb90 543d
000001d0: dfea 6cbc 418c 843d 0a3b 3fbd 6248 ca3d
000001e0: bf0d 703d f774 a3bc 3a6f 5a3d db08 803c
000001f0: 8735 c83d b416 523c e3a6 a7bc 2e1c 40bd
00000200: c679 ae3c d75d 813d 817e 77bd 4340 23bd
00000210: 1a05 d33c fd41 7abc f591 ea3d b08f 94bc
00000220: b67f 7cbc 5d36 49bd 1f72 863c 8bf7 913d
00000230: 0163 9c3d 0364 b3bb d59f f13c 4c71 093c
00000240: eb4c 1c3d a0f6 13bd 885f bf3d 2664 023e
00000250: e189 dc3d 5cd5 b9bd b03a d93d 1db4 603d
00000260: 5e62 2ebd 350b 563c a519 46bd 5883 50bd
00000270: 5416 71ba 3662 743d a867 bcbc 34ab 4bbd
00000280: 9726 33bd 3fab 883d 5a28 453d d1d9 e4bc
00000290: 2167 023d 1875 873c d4ff fe3c 968e 103c
000002a0: ed14 f13b 048a 8fbc b35a 32bd f01b 39bc
000002b0: 6149 193d 7afb 943b 39c8 06bc 3204 5f3d
000002c0: d1f7 7d3c 7a79 a0ba 0ac5 5abd 617b 81bd
000002d0: 0368 46bd 6724 01bd 2a1a 7bbd c0f4 90bd
000002e0: f007 00bd 20d4 51bd ef5b 8f3b 7b9a 963c
000002f0: 92c7 7b3c 251b 883d 2c18 a43c af77 c4bc
00000300: 263c b7bc 8f2b d83a a4d5 ed3c af80 d73d
00000310: dbca 9ebc a5b9 bcbd 9051 813d ec56 2a3d
00000320: ac1e 16be 4f95 c8bd a805 033d a62e 323e
00000330: c359 603d bc1e 0bbd 2f71 8fbd ce34 b23d
00000340: e998 5d3d 8395 b63c 21ea 22bd 91a1 d0bd
00000350: 1793 473d 735c 8e3c 6070 2fbd 8702 dfbc
00000360: 993f 5bbd 0be1 27bd 2ca1 a13c 36e8 e43c
00000370: 66d7 ef3b d2a2 923c 3db9 813c 4e6f 45bb
00000380: 7630 873d 6c86 c33c 029e 47bd cae9 f83b
00000390: f6ea 3f3d 9801 f4bc 2354 6ebd ebf3 20be
000003a0: 64d7 1cbc c32c bd3d 44b7 68bd 4640 d43c
000003b0: 5b94 f63b 833d b2bd 8ec1 38bd 67e0 56bd
000003c0: 79d5 54b9 ade6 983c 9309 8a3d a875 963d
000003d0: 91bf 4bbd db7b 2bbb 8ad6 963d 4af7 81bd
000003e0: 9e00 34bd 7626 b63c 40d9 47bc 3dca 7bbe
000003f0: ca48 643d 1060 873d cc53 873d cc4c 7cbd

fc_1.bias f4 [120]
0.011264176 0.039397303 0.049331594 0.0225541 -0.022260554 -0.041960698 0.023454085 -0.040639106
-0.049514 0.0060727857 -0.0035729217 0.03708094 0.0013309295 0.04451131 -0.006938624 -0.06986539
-0.056673024 -0.02068088 0.03864354 0.00247548 0.025682034 -0.027087018 0.063468926 -0.03479681
0.027036661 -0.007423408 -0.046585083 0.0370879 0.033817172 0.013769663 0.027166344 -0.0057365517
0.037262484 -0.013771621 0.042124204 -0.052405987 -0.00047142312 0.005802034 0.021626621 0.03922876
-0.057636086 -0.028692866 -0.03272331 0.028137766 0.0024058109 0.007508036 0.012680722 -0.00592323
-0.013163593 -0.014455802 0.018561065 -0.015200453 0.004129664 0.016512388 0.04414134 -0.06815901
0.0057611275 -0.06792478 -0.0020013775 -0.024097 -0.030125784 0.027543653 -0.019449323 0.00025892103
-0.018443763 -0.046312083 -0.016141122 0.016537381 0.009208568 0.010520158 -0.019059177 -0.0455585
0.05101906 -0.042604152 -0.028211487 0.026425112 0.00028846558 -0.030057665 -0.0249424 -0.0341077
0.038312435 0.041096527 0.036578447 0.03770841 -0.00253891 0.00883886 -0.015450178 0.0361588
-0.019359559 -0.058058776 -0.022642404 0.013976126 0.012798473 0.0055145365 -0.0064645414 -0.026797226
-0.042399738 0.015654149 0.012558755 0.002515531 0.022308448 0.045760475 0.0032713322 0.01712756
0.02976991 0.03420125 0.030740747 0.002472731 0.072114915 0.019658133 0.045603737 0.025869396
-0.025157792 0.043010578 0.01661017 -0.0076441756 -0.017711382 -0.05023942 0.019723583 0.06961541
00000000: 618d 383c 115f 213d ed0f 4a3d 60c3 b83c
00000010: c45b b6bc fbde 2bbd c822 c03c 3175 26bd
00000020: 31cf 4abd 38fe c63b ae27 6abb 2fe2 173d
00000030: 9572 ae3a 7e51 363d 665d e3bb 9615 8fbd
00000040: f921 68bd f36a a9bc b048 1e3d aa3b 223b
00000050: 2163 d23c 98e5 ddbc fffb 813d 1a87 0ebd
00000060: fd7b dd3c 0f40 f3bb 00d0 3ebd 7be9 173d
00000070: e083 0a3d 279a 613c f48b de3c aff9 bbbb
00000080: 8ca0 183d 5da2 61bc 6e8a 2c3d a9a7 56bd
00000090: 5729 f7b9 fd1e be3b 502a b13c 56ae 203d
000000a0: d113 6cbd 4d0d ebbc e108 06bd 2c81 e63c
000000b0: cfaa 1d3b f905 f63b cec2 4f3c a817 c2bb
000000c0: 1cac 57bc 07d8 6cbc 600d 983c 520b 79bc
000000d0: 2252 873b fd44 873c 8dcd 343d f396 8bbd
000000e0: d7c7 bc3b 261c 8bbd 8b29 03bb 1267 c5bc
000000f0: 59ca f6bc 3aa3 e13c 3054 9fbc cbbf 8739
00000100: 6017 97bc bdb1 3dbd 633a 84bc 6779 873c
00000110: 89df 163c be5c 2c3c fe21 9cbc 8d9b 3abd
00000120: 5df9 503d b181 2ebd c71b e7bc 7a79 d83c
00000130: 323d 9739 7e3b f6bc 0154 ccbc 84b4 0bbd
00000140: 80ed 1c3d d554 283d 48d3 153d 2274 1a3d
00000150: d763 26bb ded0 103c be22 7dbc 401b 143d
00000160: f097 9ebc 0acf 6dbd 907c b9bc 1ffc 643c
00000170: b0b0 513c 49b3 b43b 81d4 d3bb db85 dbbc
00000180: 59ab 2dbd 213d 803c 3dc3 4d3c 9bdb 243b
00000190: 35c0 b63c 566f 3b3d d963 563b 194f 8c3c
000001a0: 07e0 f33c 9c16 0c3d 05d4 fb3c 8b0d 223b
000001b0: fcb0 933d 180a a13c fcca 3a3d 0eec d33c
000001c0: b717 cebc dc2b 303d 0d12 883c fe7b fabb
000001d0: 7617 91bc dac7 4dbd 5a93 a13c 8692 8e3d

fc_2.weight f4 [84, 120]
-0.07057427 0.051654335 0.0006387461 0.09382242 0.09597515 -0.008321914 -0.044392385 -0.071489796
-0.0596615 0.032478783 -0.08005588 0.08536525 0.037790447 0.029146925 0.10693492 -0.07423349
0.005788945 -0.0031913854 -0.09365205 0.011877232 0.03025128 -0.031346686 -0.03942159 0.02047367
0.17264493 0.05472009 0.01007623 0.09335966 0.105192766 0.1218332 0.122090116 -0.020416994
-0.0310108 -0.025276521 0.13447735 0.056646306 0.112652555 -0.117170215 -0.04467532 0.013911217
-0.14971545 -0.02855484 -0.11268492 0.13019425 0.07748685 -0.08826826 -0.1293755 0.0967776
0.055282664 -0.048669 -0.05542044 0.06255378 -0.005691273 0.013898292 0.027185181 0.10693336
0.05687584 0.11572681 -0.065125026 0.1005436 0.02789451 0.10515381 0.01839982 -0.015193134
-0.13749093 -0.02263465 -0.07841836 0.033158213 0.14916274 -0.005099185 0.077727474 -0.02933844
0.084765986 -0.09637355 -0.016198823 -0.04614312 0.023272485 -0.046509117 0.029852284 0.05149297
0.15104611 0.07240715 -0.020858424 0.10392102 -0.11771049 -0.020171085 0.0985854 0.0070397216
0.0034086066 -0.12741087 0.075202614 -0.010848666 0.04318853 0.11297952 0.1240891 -0.05963919
-0.034171924 0.041720808 -0.036675643 -0.08155683 0.10066385 0.028652713 -0.02606947 -0.009209602
0.012008511 0.013160308 0.05598615 -0.004358044 -0.060892805 -0.029305551 -0.0061264834 -0.049614467
-0.0034745908 -0.05717876 0.040232446 -0.080777 -0.11017968 0.055657156 -0.01656614 0.063842535
0.009875224 0.058782224 0.11836592 -0.14422314 0.10517461 0.025420422 0.023741059 0.036489166
-0.12526824 -0.09074806 0.017668795 -0.1049004 -0.10696722 0.06811318 -0.04288719 -0.028802557
-0.09983927 0.090530135 -0.053893372 0.08561891 -0.022128547 0.02018642 0.093929105 0.020081203
0.08236764 0.08138693 0.11483597 -0.061108284 0.048479702 -0.03864297 -0.021917671 -0.07816731
0.034441307 0.082681134 0.037839483 0.09968167 0.12569845 -0.03324029 0.06886117 -0.06987149
0.029930314 0.12006218 0.046985377 0.046730038 0.04890532 0.15491734 -0.034583114 0.07813481
-0.025936527 0.028717343 -0.019939737 0.007868527 0.06117169 -0.05842244 -0.10901849 -0.13293014
0.06697971 0.041071974 0.028806971 0.1030056 -0.03527683 0.0068606357 0.09555083 -0.04048838
0.091527216 -0.0818773 -0.1388158 0.057315316 -0.007662952 -0.11071692 0.022711115 -0.05872562
-0.014592782 0.059657313 0.06704018 0.0347219 -0.09653627 -0.14878266 -0.0055425004 0.07968836
-0.02465862 -0.092971444 0.067017 -0.044227634 -0.06175053 -0.040187817 0.09239661 -0.1525693
0.01987266 0.0011072563 0.09327592 -0.07041483 -0.07984367 -0.09231203 -0.00720218 -0.047029916
0.036083415 -7.906016e-05 -0.108881876 -0.033678688 -0.05349772 -0.09668006 0.015659235 0.10533663
-0.05321745 0.06529617 0.13118398 -0.022924962 -0.022894593 -0.054266647 0.022629935 0.10585755
-0.024368558 0.08629514 0.11749111 0.085364014 0.07830531 -0.026505256 -0.024051039 -0.13102253
0.040808592 0.10542684 0.0010572337 -0.032123484 0.14644839 0.041200977 -0.02386044 -0.05216981
-0.09514385 -0.0041846326 0.0634069 0.03193369 -0.03316763 -0.0953613 0.10949508 0.11065108
00000000: 3e89 90bd 7f93 533d 8671 273a f825 c03d
00000010: 9f8e c43d a358 08bc cad4 35bd 3e69 92bd
00000020: 9e5f 74bd 7908 053d 56f4 a3bd fad3 ae3d
00000030: 28ca 1a3d 88c5 ee3c b200 db3d ba07 98bd
00000040: 31b1 bd3b 9026 51bb a5cc bfbd b998 423c
00000050: 88d1 f73c 6265 00bd 8878 21bd 66b8 a73c
00000060: d5c9 303e 2c22 603d c616 253c 5933 bf3d
00000070: 4e6f d73d af83 f93d 620a fa3d 8a41 a7bc
00000080: 5c0a febc b510 cfbc 6eb4 093e f505 683d
00000090: 62b6 e63d f0f6 efbd 78fd 36bd e0eb 633c
000000a0: 024f 19be d7eb e9bc 5ac7 e6bd a451 053e
000000b0: 6db1 9e3d fdc5 b4bd 037b 04be 5633 c63d
000000c0: 1370 623d 2559 47bd 8b00 63bd 321c 803d
000000d0: dc7d babb a9b5 633c 75b3 de3c e1ff da3d
000000e0: a4f6 683d 2e02 ed3d 4560 85bd cee9 cd3d
000000f0: 0783 e43c e15a d73d 38bb 963c 9fec 78bc
00000100: 6cca 0cbe 4d6c b9bc ce99 a0bd e8d0 073d
00000110: 1ebe 183e 1017 a7bb 952f 9f3d 2b57 f0bc
00000120: ca99 ad3d 7f5f c5bd 65b3 84bc 9100 3dbd
00000130: f0a5 be3c 5880 3ebd c78c f43c 4bea 523d
00000140: d5ab 1a3e 334a 943d 49df aabc 8bd4 d43d
00000150: 3312 f1bd d53d a5bc 24e7 c93d 77ad e63b
00000160: ee62 5f3b ff77 02be d403 9a3d 9abe 31bc
00000170: 75e6 303d ce61 e73d 6d22 fe3d 3948 74bd
00000180: dcf7 0bbd 70e3 2a3d 3339 16bd 4407 a7bd
00000190: d928 ce3d 18b9 ea3c a48f d5bc dfe3 16bc
000001a0: 59bf 443c 559e 573c bc51 653d eccd 8ebb
000001b0: bc6a 79bd 3212 f0bc abc0 c8bb 8a38 4bbd
000001c0: f6b5 63bb 4734 6abd c7ca 243d 696e a5bd
000001d0: e2a5 e1bd c2f8 633d b7b5 87bc e0bf 823d
000001e0: b1cb 213c a1c5 703d d569 f23d 3baf 13be
000001f0: c965 d73d 7d3e d03c 9c7c c23c aa75 153d
00000200: 5146 00be 1eda b9bd 26be 903c 05d6 d6bd
00000210: a111 dbbd ec7e 8b3d 7aaa 2fbd 57f3 ebbc
00000220: 8878 ccbd dd67 b93d 4cbf 5cbd f858 af3d
00000230: ed46 b5bc fe5d a53c e75d c03d 5681 a43c
00000240: 5eb0 a83d 31ae a63d 1f2f eb3d ae4c 7abd
00000250: a792 463d 1748 1ebd b08c b3bc 2f16 a0bd
00000260: 5412 0d3d ba54 a93d 93fd 1a3d e725 cc3d
00000270: 18b7 003e f826 08bd 1607 8d3d c918 8fbd
00000280: 6b30 f53c 29e3 f53d bd73 403d ff67 3f3d
00000290: f250 483d a7a2 1e3e 06a7 0dbd 2505 a03d
000002a0: d778 d4bc a240 eb3c a958 a3bc ffea 003c
000002b0: 2a8f 7a3d 5e4c 6fbd 1645 dfbd d71e 08be
000002c0: a82c 893d 163b 283d 99fc eb3c 9af4 d23d
000002d0: 707e 10bd 2fcf e03b 27b0 c33d 25d7 25bd
000002e0: 9f72 bb3d 49af a7bd bb25 0ebe 77c3 6a3d
000002f0: 8019 fbbb 8dbf e2bd a90c ba3c 478a 70bd
00000300: 9016 6fbc 3a5b 743d 5d4c 893d 8d38 0e3d
00000310: cfb4 c5bd 7b5a 18be dd9d b5bb a733 a33d
00000320: e000 cabc d067 bebd 3540 893d 0928 35bd
00000330: 20ee 7cbd fb9b 24bd 6f3a bd3d 203b 1cbe
00000340: fdcb a23c 5b21 913a 7207 bf3d a735 90bd
00000350: 1485 a3bd 170e bdbd 4400 ecbb 71a2 40bd
00000360: 34cc 133d 1acd a5b8 76fd debd aaf2 09bd
00000370: 6d20 5bbd 3200 c6bd cc47 803c bbba d73d
00000380: 8afa 59bd 00ba 853d 1855 063e 21cd bbbc
00000390: 718d bbbc b446 5ebd 6a62 b93c d8cb d83d
000003a0: 92a0 c7bc 82bb b03d 2e9f f03d 54d3 ae3d
000003b0: 895e a03d 8d21 d9bc af06 c5bc c52a 06be
000003c0: e926 273d 07ea d73d e092 8a3a ea93 03bd
000003d0: 91f6 153e 5bc2 283d f876 c3bc 03b0 55bd
000003e0: c7da c2bd 3e1f 89bb 7adb 813d e7cc 023d
000003f0: c8da 07bd c94c c3bd f53e e03d 099d e23d

fc_2.bias f4 [84]
-0.0060532447 0.06093844 -0.094021715 -0.009004177 -0.024575321 -0.029245697 -0.011043942 -0.07176415
0.08250878 0.025668185 -0.01465693 -0.035748497 0.058093827 0.055964705 -0.09683124 -0.09540689
0.061061043 -0.019048942 0.00055108196 0.01948254 -0.030784903 -0.06604051 -0.0044514546 0.019100111
-0.016361048 0.04896851 -0.0061339107 0.02750916 0.08134262 0.0019455256 -0.026905859 0.06259183
-0.010820473 0.08349303 0.0062813526 -0.046213023 0.085652575 0.07144754 -0.109742016 0.028654994
-0.06632389 0.07721544 -0.10726804 0.08436975 0.08974868 -0.0033523508 -0.044664554 -0.02975818
0.05026879 -0.039712824 -0.012769121 -0.025003025 0.019084575 -0.0148746725 0.10385116 -0.053183567
-0.014906976 -0.039112847 0.02914107 -0.083433524 -0.07880088 -0.028734567 0.01408955 -0.045518104
0.104596525 -0.099722475 0.07004484 0.09747774 -0.013290189 -0.017576378 5.485573e-05 -0.015839046
0.005191668 0.06943112 0.051408425 -0.030610004 -0.013624452 -0.09365215 -0.034137018 -0.0008581698
-0.026793955 0.042137496 -0.021446344 0.027955726
00000000: 4c5a c6bb 969a 793d 758e c0bd 4186 13bc
00000010: 2f52 c9bc ac94 efbc a6f1 34bc 15f9 92bd
00000020: 5dfa a83d 1646 d23c 9f23 70bc 046d 12bd
00000030: cbf3 6d3d 3f3b 653d 754f c6bd b064 c3bd
00000040: 251b 7a3d 870c 9cbc 7c76 103a d999 9f3c
00000050: 9f30 fcbc 3f40 87bd 82dd 91bb d677 9c3c
00000060: 9b07 86bc 3493 483d f9fe c8bb e45a e13c
00000070: f696 a63d 0201 ff3a ad69 dcbc 2530 803d
00000080: 5a48 31bc 65fe aa3d ced3 cd3b de49 3dbd
00000090: 9e6a af3d 1653 923d 6cc0 e0bd e1bd ea3c
000000a0: d2d4 87bd 2123 9e3d 59af dbbd 0cca ac3d
000000b0: 28ce b73d 1db3 5bbb 2ef2 36bd 6dc7 f3bc
000000c0: a6e6 4d3d eaa9 22bd 9335 51bc 25d3 ccbc
000000d0: 4157 9c3c e6b4 73bc ebaf d43d 03d7 59bd
000000e0: 643c 74bc cb34 20bd 41b9 ee3c 32df aabd
000000f0: 5b62 a1bd c164 ebbc dbd7 663c 3171 3abd
00000100: b436 d63d 4c3b ccbd ab73 8f3d 69a2 c73d
00000110: 18bf 59bc 56fc 8fbc e414 6638 e3c0 81bc
00000120: de1e aa3b e731 8e3d a491 523d d5c1 fabc
00000130: 1839 5fbc b3cc bfbd 42d3 0bbd cdf6 60ba
00000140: ff7e dbbc 5e98 2c3d 3eb0 afbc 6803 e53c

fc_3.weight f4 [10, 84]
-0.015405657 -0.04070831 -0.0340539 0.08549031 0.0028351257 0.050648436 0.09123565 -0.08971047
-0.15059601 0.039031453 -0.08638987 0.08364454 0.090818904 0.12863724 -0.029103521 0.112843566
-0.121060774 -0.08660955 0.038547087 0.11076277 -0.025750209 -0.029295666 -0.103350855 0.10990696
0.09536472 -0.14962617 0.06659882 -0.16766033 -0.1657872 -0.113214254 -0.06338101 -0.14729111
-0.033410434 -0.057885822 -0.017862497 -0.1383136 -0.10282303 -0.037124697 -0.10202553 0.11811867
0.12970452 0.13483804 -0.08812229 -0.05300311 -0.13515106 -0.01036001 0.18845563 -0.021218518
0.14084847 0.14825414 -0.113966405 0.041228034 -0.11869287 -0.0027976732 0.04261207 -0.076702096
0.115898825 -0.107505076 0.069716506 -0.09701198 0.06825617 -0.12780333 0.13446799 -0.028913626
-0.036383312 0.15349396 0.14130779 -0.098448366 -0.046301357 0.1182622 0.11129178 0.10737498
-0.098704025 0.04436068 0.017824162 -0.060891155 0.06276099 0.099914506 -0.11714808 -0.045169998
0.060996838 0.0034932366 -0.10995089 -0.18605204 0.020655736 -0.09020314 -0.09149317 0.0806216
-0.008976824 0.069492094 0.19478463 0.10638746 -0.15817218 0.11253469 0.102203555 0.15060128
-0.029700624 -0.12259534 0.15310831 0.03576578 -0.06956458 0.12910093 0.078265026 0.063784584
-0.12309481 -0.04356629 0.14169192 -0.15750386 -0.052213293 -0.07120441 0.15330587 -0.1405511
0.120494924 -0.081849046 -0.115282066 -0.016169615 0.16179097 0.04837285 0.15593074 0.019933458
-0.10149336 -0.09929704 0.17359374 0.15289187 -0.086859345 -0.0958485 0.11700957 0.023772495
0.06772767 -0.09135057 -0.016208174 -0.116466396 -0.0003455176 -0.06627744 0.06672763 0.060891725
0.13933173 0.10069266 -0.12153947 0.16533363 -0.14289202 0.0647002 -0.055790987 0.11915958
-0.11103242 0.10256684 -0.06158301 0.11394483 -0.100690015 0.10622596 -0.078323156 0.08859693
-0.07052334 0.05331881 0.06778327 -0.12677382 -0.07970845 -0.17830124 0.013911073 -0.1382423
0.14391908 -0.053055756 0.14651497 0.0062803105 0.11630654 -0.1450694 0.10176105 0.12617862
0.007326784 0.075058594 0.004374667 0.045890193 0.07287732 0.08826153 0.17370191 -0.07073205
-0.05369834 0.14583647 0.1339754 0.03166116 0.016987253 -0.058869142 -0.11942972 -0.15460503
-0.080263995 -0.0035774063 0.14093253 0.16076252 0.14377815 0.059548747 0.039480075 -0.03774224
-0.027051004 0.12500285 0.05064518 -0.14901191 -0.06444433 -0.01061676 -0.057284288 0.12625414
0.06425271 0.07727155 -0.15595326 -0.11433919 -0.099191464 -0.07384752 0.15485974 0.13283758
0.006203952 -0.09402073 0.015027063 -0.13452843 -0.07585154 0.038489733 -0.112517565 -0.15332462
-0.16164282 -0.001599732 -0.069678634 -0.13194415 -0.14230968 0.053655144 -0.040875394 0.009155174
0.0052691186 0.063437484 -0.023797736 -0.011068307 0.05844869 0.024110701 -0.14575385 -0.14423299
0.08134499 0.06871648 0.036161926 0.08454907 0.09103252 0.088818684 0.01037509 -0.029591247
0.041333564 0.08446139 -0.11733496 -0.100126885 -0.13364623 0.12794535 0.1261917 -0.14631146
0.07036864 0.035683803 -0.14213386 -0.059918165 -0.114373475 -0.1559928 -0.051732127 -0.14114839
00000000: 0268 7cbc c2bd 26bd 1a7c 0bbd 8b15 af3d
00000010: 84cd 393b bc74 4f3d c2d9 ba3d 1fba b7bd
00000020: d735 1abe 72df 1f3d 2ced b0bd d44d ab3d
00000030: 43ff b93d 7bb9 033e 826a eebc 871a e73d
00000040: b6ee f7bd 5960 b1bd 8de3 1d3d 97d7 e23d
00000050: 1af2 d2bc 77fd efbc 9da9 d3bd e616 e13d
00000060: 944e c33d 9a37 19be f664 883d 26af 2bbe
00000070: 1fc4 29be e0dc e7bd e7cd 81bd 7bd3 16be
00000080: 61d9 08bd af19 6dbd 5f54 92bc 15a2 0dbe
00000090: e194 d2bd 1110 18bd c3f2 d0bd 34e8 f13d
000000a0: 43d1 043e fc12 0a3e 7679 b4bd ca19 59bd
000000b0: 0a65 0abe 08bd 29bc 83fa 403e 75d2 adbc
000000c0: 953a 103e efcf 173e 3867 e9bd bade 283d
000000d0: 3f15 f3bd 2b59 37bb fe89 2e3d fd15 9dbd
000000e0: 5d5c ed3d 9f2b dcbd 87c7 8e3d 38ae c6bd
000000f0: e4c9 8b3d e0de 02be fab1 093e 45dc ecbc
00000100: ab06 15bd 852d 1d3e fdb2 103e 4c9f c9bd
00000110: 7ea6 3dbd 7433 f23d f2ec e33d 6ae7 db3d
00000120: 5625 cabd 8bb3 353d fa03 923c 0169 79bd
00000130: d588 803d fa9f cc3d 55eb efbd 2d04 39bd
00000140: d2d7 793d c9ee 643b ef2d e1bd 6d84 3ebe
00000150: 3836 a93c 6dbc b8bd c560 bbbd f01c a53d
00000160: 8713 13bc df51 8e3d 9f75 473e abe1 d93d
00000170: e3f7 21be 9678 e63d 1950 d13d 3937 1a3e
00000180: b94e f3bc 4413 fbbd 6dc8 1c3e 237f 123d
00000190: e077 8ebd 0933 043e 6a49 a03d 7ea1 823d
000001a0: 2219 fcbd 9172 32bd b017 113e b148 21be
000001b0: 9bdd 55bd 9ed3 91bd 37fc 1c3e a1ec 0fbe
000001c0: 0bc6 f63d 79a0 a7bd 0119 ecbd 2476 84bc
000001d0: 88ac 253e 9c22 463d 4fac 1f3e 7e4b a33c
000001e0: c0db cfbd 3f5c cbbd 8fc2 313e b08f 1c3e
000001f0: 50e3 b1bd 384c c4bd b7a2 ef3d 89be c23c
00000200: ceb4 8a3d 0216 bbbd 01c7 84bc ef85 eebd
00000210: 9626 b5b9 77bc 87bd 7fa8 883d 9a69 793d
00000220: faac 0e3e f437 ce3d b0e9 f8bd 384d 293e
00000230: 4952 12be 8a81 843d 1785 64bd f009 f43d
00000240: f764 e3bd 900e d23d 773e 7cbd e85b e93d
00000250: 9136 cebd ff8c d93d e467 a0bd 4f72 b53d
00000260: 8a6e 90bd d364 5a3d f4d1 8a3d ffd0 01be
00000270: 2f3e a3bd 9a94 36be 45eb 633c 648f 0dbe
00000280: 865f 133e fe50 59bd 0508 163e 10cb cd3b
00000290: 2032 ee3d 138d 14be 1968 d03d f834 013e
000002a0: 8515 f03b 52b8 993d 5e59 8f3b 5bf7 3b3d
000002b0: b440 953d 76c2 b43d eade 313e f7db 90bd
000002c0: caf2 5bbd 2856 153e d930 093e 22af 013d
000002d0: da28 8b3c c520 71bd 9297 f4bd c850 1ebe
000002e0: 7361 a4bd eb72 6abb 9e50 103e ee9e 243e
000002f0: 943a 133e 63e9 733d dcb5 213d 9b97 1abd
00000300: 119a ddbc bf00 003e 5271 4f3d 9496 18be
00000310: 64fb 83bd ebf1 2dbc eea2 6abd c448 013e
00000320: ed96 833d 8c40 9e3d 36b2 1fbe aa2a eabd
00000330: e524 cbbd 5e3d 97bd 8d93 1e3e 9306 083e
00000340: 854a cb3b f18d c0bd 1234 763c d2c1 09be
00000350: 0d58 9bbd 69a7 1d3d 9c6f e6bd 2101 1dbe
00000360: b285 25be 19ae d1ba acb3 8ebd 5e1c 07be
00000370: a1b9 11be 7fc5 5b3d f56c 27bd 95ff 153c
00000380: 92a8 ac3b 83eb 813d 78f3 c2bc d857 35bc
00000390: e567 6f3d ce83 c53c 7f40 15be d0b1 13be
000003a0: 3498 a63d 3abb 8c3d 871e 143d 1028 ad3d
000003b0: 426f ba3d 92e6 b53d 48fc 293c 5869 f2bc
000003c0: 624d 293d 18fa ac3d 504d f0bd 530f cdbd
000003d0: 8fda 08be 1b04 033e 6638 013e acd2 15be
000003e0: 6f1d 903d 2e29 123d 8a8b 11be c06c 75bd
000003f0: a43c eabd 94bc 1fbe 11e5 53bd 3489 10be

fc_3.bias f4 [10]
-0.044394206 0.063790254 0.062518895 0.0711333 -0.07379564 0.04393636 -0.077174164 0.050531786
-0.022297341 -0.045705106
00000000: b3d6 35bd 77a4 823d e809 803d 56ae 913d
00000010: 2b22 97bd 9df6 333d 7d0d 9ebd 6bfa 4e3d
00000020: eaa8 b6bc 4735 3bbd
